assignment2/trained_student_model.pth (torch, 953597 bytes, 6 tensors)

weight f4 [256, 784]
000000 46 f7 00 3e 3d 5c 03 3e 0c e0 b8 3d e6 98 06 3e
       0.12594327 0.12828155 0.090271086 0.13144264
000010 17 c2 b4 3d 50 8d d1 3d a2 4b a0 3d 65 5d eb 3d
       0.08826082 0.10232031 0.07826926 0.11492423
000020 77 62 04 3e fc 0c 97 3d 14 71 04 3e 2e 19 d7 3d
       0.12928186 0.073755234 0.12933761 0.105028495
000030 3b 4b fe 3d b7 e5 d1 3d f9 26 e4 3d 3d b6 a8 3d
       0.12416693 0.10248893 0.11140246 0.08237884
000040 b3 8e eb 3d 37 22 ba 3d b5 5b 9f 3d 59 85 dc 3d
       0.11501827 0.09088557 0.077811636 0.107676215
000050 4c 12 9a 3d d8 6e c1 3d a4 4d ac 3d 3c 88 fa 3d
       0.07523021 0.0944497 0.08413246 0.12233016
000060 42 46 90 3d 84 4a a8 3d 74 5b b5 3d 35 08 9e 3d
       0.070446506 0.08217338 0.08855334 0.07716409
000070 0a ea d0 3d af c1 81 3d 6f da 05 3e fc 7a 47 3d
       0.102008894 0.0633577 0.13071607 0.04870127
000080 85 e9 f7 3d 6b db e3 3d c3 15 cd 3d d8 38 0d 3e
       0.12105087 0.11125835 0.10013916 0.13791215
000090 ac a4 d7 3d cf a6 b6 3d 75 0b 4f 3c 34 d7 40 3c
       0.105294555 0.08918535 0.012637009 0.011770058
0000a0 66 88 67 3d bf 52 a4 3d 8f 14 00 3e f9 e0 1c 3e
       0.056526564 0.08023595 0.12507842 0.15320195
0000b0 51 a6 de 3d 5f 42 43 3d 0e 42 70 3d 88 98 de 3c
       0.10871566 0.04767072 0.058656745 0.027172342
0000c0 8c e9 b7 3d 9e d1 8a 3d 69 3c 55 3d 2b 84 ae 3d
       0.089800924 0.067782626 0.052059565 0.08521303
0000d0 75 af 86 3d f9 d9 03 3e 94 11 df 3d bc 4e e8 3d
       0.065764345 0.12876119 0.10892025 0.113431424
0000e0 96 24 e1 3d c4 66 c6 3d 1b df f6 3d dd ea 67 3c
       0.10993306 0.0968757 0.12054273 0.014155117
0000f0 2e cf 49 3d c8 5e fa bc 54 08 2a bd 45 52 a2 bd
       0.049269848 -0.030562773 -0.04151185 -0.07925848
000100 aa 1e 16 bd a3 14 47 bc 99 c6 47 bd ee 40 eb bc
       -0.036650337 -0.012150916 -0.04877338 -0.028717484
000110 aa f9 c7 3d 84 b2 d0 3d 84 f9 04 3e 87 6a a4 3d
       0.097644165 0.10190299 0.12985808 0.08028131
000120 c2 c2 3b 3c b4 a3 47 be 23 27 92 be 3a 63 b1 be
       0.011460008 -0.19496042 -0.28545484 -0.34646016
000130 29 8f 79 be 9c 03 ca bd f6 1e 46 bd bc 94 9a 3d
       -0.24371018 -0.0986397 -0.04836937 0.075479
000140 04 20 92 3d 02 26 96 3d 97 07 ee 3d 3a 72 ac 3d
       0.07135013 0.07331468 0.116225414 0.084202245
000150 36 67 f6 3d 61 ea b2 3d 49 91 b7 3d b6 22 06 bd
       0.12031405 0.087361105 0.08963258 -0.032747947
000160 34 b4 bd bd ed ae 39 be bb 63 82 be 96 31 8e be
       -0.09262887 -0.18133135 -0.25466713 -0.27772206
000170 e3 97 86 be 25 c7 62 be 6f e2 48 be cc 02 c9 3c
       -0.26287755 -0.2214628 -0.19617628 0.024537466
000180 01 b7 a7 3e 04 ae 63 3e 3e fb 10 3e 91 0d 97 3c
       0.32756808 0.2223435 0.14158341 0.018439086
000190 a2 ec a5 bc 9c b8 9b bd 53 5e 99 be ad 02 0b bf
       -0.020254437 -0.07603571 -0.29954776 -0.5430096
0001a0 e7 9f 01 bf 05 0c ba be c4 e7 8b be 26 14 ad bd
       -0.50634617 -0.36337295 -0.2732526 -0.08451109
0001b0 3a 63 31 3d c6 b9 9d 3d 98 d3 0a 3e aa c2 d7 3d
       0.04330752 0.07701449 0.13557279 0.10535176
0001c0 6e 8e e0 3d 7f 51 7e 3d f5 1c dc 3b 34 02 a3 bd
       0.10964666 0.06208944 0.006717319 -0.079594046
0001d0 c9 20 d3 bd 7b ab 65 be 0f 6d 32 be 9f 87 4a be
       -0.10308988 -0.22428696 -0.17424415 -0.19778298
0001e0 ac 17 8e be 49 6e 7b be c4 ee d7 bd 60 55 50 3d
       -0.27752435 -0.24553789 -0.10543588 0.05086267
0001f0 b5 b1 7a 3e ba c9 6a 3e a9 10 3f 3e e1 83 2e 3e
       0.24481852 0.22928515 0.18658699 0.17042495
000200 ad b4 88 3e df 9a ab 3d 13 f2 9b bd dd f6 80 be
       0.26700345 0.08379149 -0.07614531 -0.25188342
000210 e1 c1 00 bf 92 3e ed be 04 6b f9 be d1 e9 75 be
       -0.50295836 -0.463368 -0.4871446 -0.24014975
000220 4c c0 a4 bc 53 cf 04 3d 0b fd e9 3d fc fd b9 3d
       -0.020111226 0.032424282 0.11425217 0.09081647
000230 7c 3b e7 3d 69 9b 8c 3d b2 e5 89 3d 2e 03 de bd
       0.112906426 0.0686558 0.06733264 -0.1084045
000240 53 2e fc bd 92 3f 16 be dd d9 cf bd 16 2f 60 be
       -0.12313523 -0.14672688 -0.10148976 -0.21892962
000250 2f b9 48 be ea df 11 be 72 13 a4 3c 22 45 96 3d
       -0.19601892 -0.14245573 0.020028803 0.07337405
000260 43 0f 7c 3e da 9e 72 3e bf d7 a2 3e 76 66 8e 3e
       0.24615197 0.2369341 0.31805226 0.27812546
000270 8b 55 94 3e e5 c8 78 3e de 26 72 3d 69 16 28 be
       0.28971514 0.24295385 0.059119098 -0.16414799
000280 f3 35 97 be 4c 63 e7 be 2f 10 17 bf 0c 85 d1 be
       -0.29533347 -0.45192945 -0.5900907 -0.4092182
000290 8e 25 58 bd 42 55 61 3c f0 b6 b5 3d 33 6b 04 3e
       -0.05277019 0.013753237 0.08872783 0.12931518
0002a0 70 c9 db 3d 4e 4d bc 3d 36 01 c1 bc df 84 1b be
       0.107317805 0.09194432 -0.023560148 -0.15187405
0002b0 d8 76 f8 bd 5b 57 2c be 8b c4 27 be 18 02 9d be
       -0.12132043 -0.16830198 -0.16383569 -0.3066566
0002c0 d0 b1 40 be fb 94 ae bc 8f f5 e7 3d bb 3a 66 3d
       -0.1881783 -0.021311274 0.113261335 0.056208353
0002d0 ee 3f 00 3e 64 d9 86 3d ab 74 83 3d 2b 85 c0 3d
       0.12524387 0.06584433 0.06418737 0.094004
0002e0 a7 fa 00 3e 82 bc 52 3e 77 60 38 3e 7b ca 67 3d
       0.12595616 0.20579723 0.18005548 0.056589585
0002f0 ab 97 6c bd e3 a5 0e be 1b d3 d9 be fa c2 09 bf
       -0.05776183 -0.13930468 -0.42543873 -0.53813136
000300 59 57 81 be 37 b0 58 bd e9 ed c9 3d 50 a2 b9 3d
       -0.25261953 -0.052902427 0.09859831 0.09064162
000310 98 8d cc 3d d0 80 c6 3d 17 b8 b6 bd 59 d8 8b be
       0.09987944 0.09692538 -0.08921831 -0.27313498
000320 93 91 9f be 01 29 f5 bd 00 ae 47 bc 3e c1 01 be
       -0.31165752 -0.119707115 -0.012187481 -0.12671372
000330 47 fc ca bc d2 47 60 3b d2 b7 eb 3d 55 a1 d3 3d
       -0.024778498 0.0034222496 0.1150967 0.10333506
000340 85 a3 bd 3c 4d 7c ce bd d1 d7 ab bc c8 8a eb 3c
       0.023149261 -0.10082302 -0.020976933 0.0287527
000350 77 44 fd bb 63 ea 50 3d 23 f0 a2 3d b2 05 f8 3d
       -0.007729109 0.05100478 0.07955959 0.12110461
000360 6a 59 9e 3d 1b 31 db 3b 5e 6a 67 be b5 b5 13 bf
       0.07731898 0.0066892034 -0.2259917 -0.5769914
000370 f2 ec 05 bf 61 cb 4f be c0 a0 a9 3d 02 59 bb 3d
       -0.52314675 -0.20292427 0.08282614 0.09147836
000380 1f 7a 82 3d 11 0a dd 3d cd 2e fb bd bc b2 8c be
       0.06370949 0.10792936 -0.12264786 -0.27480114
000390 45 a5 2b be 4e 53 4f bc 4a b3 0a bc e0 40 d4 bc
       -0.16762264 -0.012654139 -0.008465597 -0.025909841
0003a0 d3 b1 92 bb d2 bc e9 3c 9a 1e e2 3d 0e e4 0a 3e
       -0.0044767647 0.02853242 0.11040993 0.13563558
0003b0 44 e3 92 3b a6 60 2d be 53 bc 1d be 50 85 22 be
       0.0044826586 -0.169314 -0.15403871 -0.15871167
0003c0 1d 8a 02 bd e0 33 90 3d a7 b8 07 3e ca 62 19 3e
       -0.031869996 0.07041144 0.13254033 0.14979091
0003d0 47 4c 9b 3d fc f8 2c 3d c6 d0 8d bc 76 a9 3c be
       0.07582908 0.042229638 -0.017311465 -0.18424019
0003e0 5e 68 ff be 03 ca 90 be 6d 0a a7 3d 99 78 94 3d
       -0.49884313 -0.28279123 0.081562854 0.07249565
0003f0 4e 97 bd 3d e0 df 83 3d 67 9d 92 3b 2a bf 22 be
       0.09257375 0.06439185 0.00447433 -0.15893236

bias f4 [256]
000000 d6 43 9e bd 42 0e 3a bd a1 a7 87 bd 3f a6 1b bc
       -0.077277824 -0.045423754 -0.066237696 -0.009500085
000010 2a 36 f3 3b d6 87 f9 bd 12 dc 8b bd 37 b0 c0 bd
       0.0074222283 -0.12184112 -0.068290845 -0.0940861
000020 c9 21 b0 bd 14 7a 11 bb 8d 69 49 bd 7a 94 bb bc
       -0.08600194 -0.0022198008 -0.049172927 -0.022897948
000030 fe cb eb 3c 6e 0b 99 ba 3a 5b b1 bc 03 56 93 bd
       0.028783794 -0.001167638 -0.021649946 -0.0719414
000040 b8 66 a7 bd 45 f9 49 3c 88 d0 36 bc bc 30 28 bd
       -0.08173889 0.012327497 -0.011158116 -0.0410621
000050 70 da c8 3c 8e 2b 82 bc 43 5a c3 3c 25 2b 74 3d
       0.024518222 -0.01588991 0.023846751 0.05961146
000060 dd 33 e8 bc 83 27 4c bd 88 f0 02 bd de 92 e0 3b
       -0.028345043 -0.04984237 -0.03196767 0.0068534454
000070 0f 73 9b bc bd 08 1c bd ab b1 0c 3c 7d 85 62 bd
       -0.018975763 -0.03809427 0.008587281 -0.055303086
000080 96 9d b6 bd 0e 23 fd 3c af c7 86 bc e5 68 bd bd
       -0.08916776 0.030900504 -0.016452638 -0.09248523
000090 cb 39 a4 3c 91 87 82 3c dd 62 2a bd a8 e0 26 bd
       0.02004709 0.015933784 -0.04159819 -0.040741593
0000a0 f9 b2 1c bd 70 e8 49 3c 2e 12 0a 3d 34 27 8b bd
       -0.03825662 0.012323484 0.033708744 -0.06794587
0000b0 b3 40 3f bd d3 c6 a6 bd 3d 31 dd bc 25 d1 72 3c
       -0.04669256 -0.081433915 -0.027001018 0.014820372
0000c0 de d6 c3 bd 32 8b 85 bc 4f 5a d4 bd 0e 49 5f 3d
       -0.09562467 -0.016301725 -0.103687875 0.05451303
0000d0 d2 e2 58 bd 79 41 09 bd 27 dd dc bc b8 8c 8f 3c
       -0.052950688 -0.033509705 -0.026960922 0.017523155
0000e0 d3 db 87 3c 8f 60 6d bd 31 1c 29 3a 8b 00 b8 bd
       0.016584313 -0.057953414 0.0006451039 -0.089844786
0000f0 50 90 1b bd 8a 6d d9 bc b8 ec bd bd 1d 69 f1 bb
       -0.037979424 -0.02654149 -0.09273666 -0.007367267
000100 33 32 72 bd 5f dc 38 bd e5 af 51 bd 6e 75 95 bd
       -0.059129905 -0.045132037 -0.051193137 -0.072977886
000110 d2 18 2a bd 18 28 12 be b9 b7 19 bc b9 3e f4 bd
       -0.041527577 -0.14273107 -0.009382182 -0.11926026
000120 c1 6d 83 bc fd 62 2c 3d 0a 95 6c bd cd 8a 2e bd
       -0.016043546 0.04208659 -0.057759322 -0.04261284
000130 3b 6d 6f 3d c7 74 a3 bd 82 72 08 bd 64 fa c8 bc
       0.05845378 -0.07981258 -0.03331233 -0.024533458
000140 fe 21 c2 bd 3c 5d e5 bd 8d d3 1a bd 63 ff ee 3a
       -0.0947914 -0.11199424 -0.037799407 0.001823407
000150 9c 3e e0 bd 9e c0 85 bc 69 aa db bd 6a 00 8e bd
       -0.10949442 -0.016327199 -0.107258625 -0.06933673
000160 80 0f 6d bb a3 2d c7 bd ea ea d8 bd 70 bf 08 be
       -0.0036172569 -0.097255014 -0.10591681 -0.13354278
000170 60 35 8b bd a7 09 b6 bd de 11 50 3d f9 db 0d be
       -0.0679729 -0.0888856 0.05079829 -0.13853444
000180 50 e7 a6 bd 02 b1 91 bc bf 43 37 bd a5 39 1e bd
       -0.08149588 -0.0177846 -0.044742342 -0.038629193
000190 64 36 89 bd 26 14 a7 bd 5b ac ed bd a2 e2 5d bd
       -0.06699827 -0.0815814 -0.1160514 -0.054171212
0001a0 f5 61 a9 bd 07 97 0a be 92 b8 9e bd ae 77 97 bc
       -0.08270637 -0.13534175 -0.07750048 -0.018489685
0001b0 5e 74 9e bd d3 5b a4 bc 8f 90 cb bc 06 88 49 bd
       -0.07737039 -0.020063316 -0.024849204 -0.049201988
0001c0 e5 96 48 bd a1 36 0f bd 7d 19 0a bd 0f 19 55 3c
       -0.04897203 -0.034964208 -0.033715714 0.013006463
0001d0 b2 c9 3c bd fc ae 93 bd 5e 05 94 bd 8e e4 b9 bd
       -0.04609079 -0.0721111 -0.07227586 -0.090767965
0001e0 94 cc 33 b9 0b a9 c7 bc 2d b7 01 bc fa f0 60 bd
       -0.00017146982 -0.024372598 -0.007917208 -0.054917313
0001f0 e7 22 fa bc 03 66 bd bb 3b 39 d9 bc 8c 69 22 bd
       -0.03053422 -0.005779983 -0.026516547 -0.03965144
000200 0e 59 34 bd 85 74 16 be 81 90 30 bd da c6 8e bd
       -0.04403024 -0.14692886 -0.04310656 -0.06971522
000210 09 1f 3a 3c d4 86 b6 bd e6 c3 ed bc ff 40 0e bd
       0.011359938 -0.08912435 -0.029024076 -0.034729954
000220 ec 9c 06 bd cd 9a 17 bd e4 04 31 bc 98 c6 98 bd
       -0.032864496 -0.037012864 -0.010804389 -0.07459754
000230 bb 8e ab bc 3a 79 b8 bc 99 08 b4 bd 3c 20 02 be
       -0.020942083 -0.022518743 -0.087907024 -0.12707609
000240 1b 6d 8a bd c6 6f 40 bd 7b 1c 01 3d 47 81 c9 bd
       -0.067590915 -0.046981595 0.0315213 -0.09839111
000250 d9 1e bf bc ef a6 67 bd 1d 5a 86 bd 7b 84 ce bc
       -0.023330139 -0.056555685 -0.065601565 -0.025209656
000260 3b 13 fc bc f6 f2 84 bd e5 b9 31 bd 4a 67 9a bd
       -0.030770889 -0.064916536 -0.043390173 -0.07539232
000270 67 5b 70 bd da aa 38 bc ef 53 93 bd 2a 9e 92 bd
       -0.058680918 -0.011271203 -0.071937434 -0.07159074
000280 d2 af ae bc b9 9d 92 bd 1f 3d b9 bd 00 f9 60 bd
       -0.021324072 -0.071589895 -0.09044861 -0.054924965
000290 46 ef 84 bc 7b 68 d4 bd 7c 5e 17 bd 4e 5b b1 bc
       -0.016227376 -0.103714906 -0.03695534 -0.021649983
0002a0 8f 1b 9a bd 04 b3 b6 bd 36 dd 5e bd a8 3f a9 bd
       -0.07524788 -0.08920863 -0.054410182 -0.082640946
0002b0 1e 24 69 bd 89 87 4b bc 5b 35 26 bd 3d 9c b3 bd
       -0.05691921 -0.012422451 -0.040578227 -0.087700345
0002c0 c3 eb 36 bd 88 ac 51 bd c4 2d a6 3c 15 a6 3c bd
       -0.044658434 -0.05118993 0.020285495 -0.046056826
0002d0 cd 9c 03 bb 30 3e e3 bc a4 f5 83 bd 90 a6 37 bd
       -0.0020082474 -0.027739614 -0.064433366 -0.04483658
0002e0 64 47 d2 bc d7 2d b8 bd 77 fb 5c bd ec 9f a0 bd
       -0.025668807 -0.08993118 -0.053950753 -0.07843003
0002f0 94 ee e7 bc b4 ef f5 bc d0 3b a5 bc fb 3a b8 bd
       -0.028312005 -0.030021526 -0.020170122 -0.08995625
000300 a7 38 08 bd c2 7e 4c bd 4d a7 9b bd 49 06 b0 bd
       -0.033257153 -0.049925573 -0.076002695 -0.08594949
000310 51 f3 8a bd a6 5a 64 bd 37 c7 90 3d 1d a9 5f bd
       -0.0678469 -0.05575051 0.07069247 -0.05460464
000320 64 f3 3d bd 2b d1 c5 bd 16 70 a8 bd 10 db 1d bd
       -0.046374694 -0.09659036 -0.08224504 -0.038538992
000330 e6 4a 84 3c 86 50 a9 bd 6c c4 62 3c 7c 83 de bd
       0.016148996 -0.08267312 0.013840776 -0.108649224
000340 f5 0f b9 bc 70 a6 00 3c d4 94 c3 bd 58 40 97 bd
       -0.022590617 0.007852182 -0.09549871 -0.073853195
000350 65 0b cd bd 42 3a 8f bc 04 48 79 bd f4 a4 e1 bd
       -0.10011939 -0.017483834 -0.060859695 -0.110177904
000360 f4 af 9e bd bf 61 77 bc 62 23 c4 bc f4 8c b3 bc
       -0.07748404 -0.015098988 -0.023942653 -0.021917798
000370 ec c7 97 bd 19 c3 e3 bd 94 5b fc bb a4 69 98 bd
       -0.07411179 -0.11121196 -0.0077013467 -0.07442024
000380 df e1 e3 bd ea b3 d6 bc f7 f0 64 bd 22 b3 6f bc
       -0.11127066 -0.026208837 -0.055893864 -0.014630111
000390 ce f2 a3 bd 81 f7 4e 3d e4 12 c3 bd 28 75 96 bd
       -0.08005296 0.050529007 -0.095250875 -0.073465645
0003a0 9a 94 09 bd 0b 96 22 bd 80 55 7f bd 79 74 26 bd
       -0.033588983 -0.039693873 -0.0623374 -0.04063842
0003b0 5a 2f 8f bd 0d 16 d1 bd a6 0a 8b bd 0f 09 7f bd
       -0.069914535 -0.10209284 -0.067891404 -0.0622645
0003c0 9f 9a b4 bd 1d 62 84 bd c4 e9 0d be da b2 28 bd
       -0.08818554 -0.06464026 -0.13858706 -0.04118619
0003d0 4a 2d e1 bd 30 e9 02 be 71 24 ac 3c 28 2b 72 bd
       -0.10994966 -0.12784266 0.02101347 -0.05912319
0003e0 81 38 a0 bd ec aa 77 bd 9f e9 1d bd 8b b6 91 bc
       -0.07823277 -0.06046574 -0.038552877 -0.017787239
0003f0 fc c3 4e 3b b1 bb a4 bd 63 4f 81 bd b4 69 dc bc
       0.0031549921 -0.08043612 -0.0631397 -0.026905872

weight f4 [128, 256]
000000 20 58 87 bc f4 bb b1 3d ed 9a 4f 3d a8 f6 92 ba
       -0.016521513 0.08678427 0.050684858 -0.0011212425
000010 98 ce 54 bc a2 e7 77 bd d6 75 ee bd ab d2 24 3e
       -0.012988709 -0.060523637 -0.11643569 0.16095988
000020 4c 96 cd 3d bf ee cf bd 3d f9 57 be e1 52 5d be
       0.100384325 -0.10152959 -0.2109117 -0.21613647
000030 22 c4 26 bd 24 b2 57 be 44 b1 73 3e c1 9e 81 bd
       -0.04071439 -0.21064049 0.2379809 -0.06329108
000040 de cb bf bd 48 ba c8 bc 9e 99 34 3e ea c6 8c 3d
       -0.093650565 -0.024502888 0.17636725 0.06873877
000050 78 10 16 3e 71 83 4f bd 73 48 2a bd 6d db 64 be
       0.1465472 -0.05066246 -0.041573 -0.2234933
000060 6a 90 cf 3d 38 d0 6b 3e 4c f7 b7 3d f7 6f 84 be
       0.10134967 0.23028648 0.08982715 -0.25866672
000070 2d 74 5e 3a ea bb 6a bd 64 ba 7b bd 64 bd 13 bd
       0.00084859395 -0.057308115 -0.061457053 -0.03606929
000080 ba da 9e 3d 16 c7 49 be 66 5a ba bd 4a 86 54 3d
       0.077565625 -0.19704852 -0.090992734 0.05188588
000090 16 9e 90 3d 92 d5 16 3d 46 f4 f4 be ae 2e af 3d
       0.070614025 0.03682477 -0.47842616 0.08553825
0000a0 41 b5 45 3d f6 88 75 3d 33 5b ca bc c7 a7 0d be
       0.04826856 0.05994507 -0.02470169 -0.13833533
0000b0 52 0e 06 bd d7 13 67 3e ff 29 47 3e 94 06 2f bd
       -0.0327285 0.22566162 0.19449614 -0.042730883
0000c0 34 cb ec 3b be f7 a2 bd f8 6b 53 3d ea fc 3a 3e
       0.007226372 -0.07957409 0.05161664 0.18260542
0000d0 1d 9d 12 3c 7a d4 c3 bb 43 bc a0 bd 58 82 05 3d
       0.008948592 -0.005976257 -0.07848408 0.03259501
0000e0 01 a6 04 bd 0c da c7 3d f6 f7 a5 3c 22 7c 54 3e
       -0.032384876 0.09758386 0.020259839 0.20750478
0000f0 64 96 2f 3e 30 32 7b 3d 28 26 aa 3d 9c d1 14 3d
       0.17147213 0.06132716 0.08308059 0.03633271
000100 7b 79 89 3d af 75 90 3d 3a eb 80 3d fc 2e 9c bd
       0.06712624 0.07053696 0.06294866 -0.07626149
000110 ce 3f f7 bd 0a 6a 25 3e 67 a5 08 3e 9f fd 17 3e
       -0.12072717 0.16153732 0.13344346 0.14842843
000120 76 81 8c 3d 1b 9e 9f 3c 63 ca 6b be 74 69 d6 bc
       0.0686063 0.01948457 -0.23026423 -0.02617333
000130 67 9c b6 bd 80 a2 58 bd 4e 45 cf bd b4 dd 03 be
       -0.0891655 -0.052889347 -0.10120641 -0.12877542
000140 d9 5a ba bd 64 4e 9e 3d 92 e0 b7 bd 4a 31 c6 3c
       -0.09099359 0.077297956 -0.0897838 0.024193425
000150 02 2b 91 3e 9c 24 a1 be 47 e2 6e bd 73 27 20 3e
       0.28353125 -0.31473243 -0.058321264 0.15640049
000160 03 42 f3 3d 23 2f 43 3e 77 4f 29 3d a4 1b e6 3d
       0.11877825 0.1906095 0.04133555 0.11235741
000170 c6 e5 80 3e 6b d8 09 3d 92 ac 59 bc fb 06 09 bd
       0.25175303 0.033653658 -0.013285773 -0.033453923
000180 bb 84 7b 3d 9b ab 33 be 6d 29 11 be 3b e9 27 3c
       0.06140588 -0.17545931 -0.14175959 0.010248478
000190 4d 81 37 3e 0d 1e 40 3e d3 96 e3 3d aa 15 a3 be
       0.17920418 0.18761463 0.11112752 -0.31852466
0001a0 f8 2d 8f 3d 20 c1 ee 3d 7d c3 d2 3d 9f 68 b9 3d
       0.0699119 0.116579294 0.10291193 0.09053158
0001b0 a9 43 4f 3e b1 33 a7 be 23 fe 39 be f6 3e a3 3d
       0.20240654 -0.32656625 -0.18163352 0.07970993
0001c0 1c 2c b4 bd ca 23 32 3b 8a d7 3e be 7e 0b de be
       -0.08797476 0.0027181976 -0.18636909 -0.43368143
0001d0 cd 38 5a bd dd f6 53 bd 84 10 0e 3e 67 50 c8 3d
       -0.053276826 -0.0517491 0.13873488 0.097809605
0001e0 51 75 f2 3d 3e 17 08 bc c5 c3 ca bb e3 d6 93 be
       0.118387826 -0.008306323 -0.0061878883 -0.28874883
0001f0 6a b7 04 3e d0 ad 83 3d 5d 94 02 be 0c 93 ba bd
       0.12960592 0.064296365 -0.12751909 -0.09110078
000200 db 00 e2 3d d0 66 fc 3d f1 56 dd 3d 7c 19 3b 3e
       0.110353194 0.123242974 0.108075984 0.1827144
000210 58 a3 48 3d 97 8a 72 3e f0 5b a8 bd 88 dc 53 3d
       0.0489839 0.2368568 -0.08220661 0.051723987
000220 29 24 89 bd 9c dc 26 be cc 52 c9 be bd 55 48 3e
       -0.0669635 -0.16295093 -0.39320982 0.19563957
000230 9a de fc 3d 5f 4f fd bd a7 57 a1 3d 39 a7 01 3c
       0.123471454 -0.123686545 0.078780465 0.007913404
000240 85 1a 02 3e 30 f8 a5 bc 95 2b 3a 3e 3a 05 32 be
       0.12705429 -0.020259947 0.18180688 -0.17384806
000250 b7 d7 85 be 74 89 4a 3e 10 c7 81 ba 88 13 56 be
       -0.2614114 0.19778997 -0.0009901244 -0.20905888
000260 ee d0 2f be c0 a3 08 3e e9 b4 ec bc d5 fc 59 bd
       -0.17169544 0.13343716 -0.028894858 -0.053219635
000270 86 79 10 3c 34 3e a7 bd 96 15 df 3d 78 0d cb bd
       0.008818036 -0.08166161 0.10892789 -0.09914678
000280 58 91 74 3c 06 4d 0a 3e c8 ef 1c be 53 e7 4a be
       0.014927231 0.13505945 -0.15325844 -0.19814806
000290 4e f8 0e be 4f f5 40 3c e1 20 f4 3d 72 61 18 3e
       -0.13961908 0.011777236 0.11920334 0.14880922
0002a0 ea b3 5d 3c e0 aa e0 3d af 9f 3a 3e 41 e3 bd 3d
       0.013531664 0.10970092 0.18224977 0.09271861
0002b0 b7 50 c8 be b0 bd 12 3e 5a b9 09 3e 0f 4a 4a 3d
       -0.3912408 0.14330173 0.13449612 0.049387034
0002c0 55 8c 17 3e 2b 21 b1 bc 8c 75 69 bd 2b bb 31 bc
       0.14799626 -0.021622261 -0.056996867 -0.010847847
0002d0 74 65 78 3e 27 1b 7c be af 91 c7 bc 56 de 46 3e
       0.24257451 -0.24619733 -0.02436146 0.19420752
0002e0 32 e9 48 be b3 72 c4 bd ee a8 35 3d 4b cb 61 3e
       -0.19620207 -0.0959219 0.044350557 0.22050206
0002f0 2a b7 a0 3d 19 14 dc 3d 53 87 3e 3e 0c 55 5f bd
       0.07847436 0.10746021 0.1860631 -0.054524466
000300 39 b0 24 bd ee 69 e8 3d 8e 29 c4 3d ad b0 b3 3d
       -0.04020712 0.113483295 0.095782384 0.087739326
000310 7e a5 ce 3d 35 80 04 3e e0 e8 0a be 9e a5 0e bd
       0.10090159 0.12939532 -0.13565397 -0.034825914
000320 d6 83 c9 3d ce db 9e 3d 33 72 ae 3d 1c 19 0f be
       0.09839599 0.07756768 0.085178755 -0.13974422
000330 aa b9 df 3c 29 52 02 bc e8 d1 3a 3e 3c a0 d7 3d
       0.027310211 -0.007954159 0.18244135 0.10528609
000340 67 05 1e 3e ca d4 d8 3c cc ca df 3d 7d 6e 50 bd
       0.15431748 0.026468653 0.10927352 -0.05088662
000350 36 a2 19 3e 74 1b e6 3a fe 35 63 be b6 a6 5d bd
       0.15003285 0.0017555789 -0.22188565 -0.054114066
000360 a4 8c 3d 3e 4b 33 7e bd 8e c8 f2 be 0f 29 68 3c
       0.18510681 -0.062060636 -0.47418636 0.014169945
000370 34 e7 d6 3d af 1f 2e be c6 47 90 3d 56 98 33 3d
       0.10493317 -0.17004274 0.0704494 0.04384645
000380 af 26 38 3e 4a d4 d7 bd 84 36 3f 3d 96 02 70 3e
       0.17983507 -0.10538538 0.04668285 0.23438486
000390 c1 f0 fb bd 80 2e b8 bc dc ab eb 3d 4a ed 0f 3e
       -0.123017795 -0.02248311 0.11507389 0.14055362
0003a0 9b 60 84 3d 96 ae 0d 3e 54 7f f6 bd d7 b2 61 bc
       0.064637385 0.1383613 -0.12036005 -0.013775549
0003b0 fc 4b 92 3d 7c f8 6f 3d 55 82 0b bd 32 aa d6 bd
       0.07143399 0.058586583 -0.03405984 -0.10481681
0003c0 9d f2 96 3d fb 84 db bc 43 9a 4f 3d 10 a4 58 be
       0.073704936 -0.026796808 0.050684225 -0.21156335
0003d0 96 0d c2 3d d1 d6 9b 3d 8b f7 53 bc 88 43 54 bd
       0.094752476 0.07609332 -0.012937437 -0.051822215
0003e0 62 4c 3c 3e a4 2d 6e 3d 6e 22 40 3d 72 eb d3 3c
       0.18388513 0.058148995 0.046907835 0.025869105
0003f0 64 65 51 be fd 2f 4d bd ff 77 71 bd 26 79 1d bd
       -0.20448834 -0.050094593 -0.058952328 -0.038445614

bias f4 [128]
000000 52 fe 42 be c4 31 ef bc 43 1f b3 3e da 57 99 3c
       -0.19042328 -0.029198535 0.34984788 0.018718649
000010 20 33 73 3d 55 0b 23 be b5 31 33 be f4 8d 2c 3e
       0.05937493 -0.15922292 -0.1749943 0.16851026
000020 29 4d fe 3d 29 fe 9e 3d 03 bc b7 3d 0b d7 86 be
       0.12417061 0.07763321 0.08971407 -0.2633594
000030 a7 36 97 be 77 c9 d0 bd 88 d8 65 be 0b e6 f8 bd
       -0.29533884 -0.10194676 -0.22445881 -0.12153252
000040 91 06 53 3d b4 6a 6a be ee 35 03 3e 08 78 08 be
       0.051519934 -0.22892267 0.12813541 -0.13327038
000050 f3 ab 5b be d3 13 e5 bc 93 95 c9 3e 46 25 11 be
       -0.21452312 -0.027963554 0.3937193 -0.14174375
000060 16 59 aa 3d 8f a1 d9 be 8c 29 e7 3e 6a 77 e1 3c
       0.08317773 -0.42506072 0.45148885 0.027522761
000070 04 08 8f bd 94 32 6b bd 12 75 86 3e d7 ef 27 be
       -0.06983951 -0.057421282 0.26261193 -0.16400085
000080 7c cf 19 3c dd b1 8a bc 38 01 1c be 6f 91 8a 3e
       0.009387847 -0.016930515 -0.1523484 0.27064082
000090 8b 06 8d bd dd e1 56 bd cc 94 04 be e1 27 0c be
       -0.068860136 -0.052461494 -0.12947387 -0.13687088
0000a0 35 29 00 be b6 2f 1e be 20 1d 90 3b 69 03 95 bd
       -0.12515719 -0.15447888 0.004398003 -0.07276041
0000b0 c3 88 77 be 09 f1 18 bd e9 df 2f 3d 06 68 c5 bd
       -0.24173264 -0.037339244 0.042938147 -0.096389815
0000c0 d6 d4 13 3a 7d 7b 3e bc 36 eb 98 bc 64 73 5f 3e
       0.000563932 -0.011626122 -0.018666845 0.21821362
0000d0 b5 5b 14 3e 15 19 20 bd b5 c6 3c be eb 76 97 bd
       0.14488108 -0.03908642 -0.18435176 -0.07395729
0000e0 98 b7 cd bd 5e 56 1f 3e e1 2f 1b 3d 9a e3 7f bb
       -0.10044783 0.1556029 0.037887458 -0.0039045573
0000f0 f3 4c 3d 3e 40 d1 48 3e 57 3f 49 be b3 94 c3 bd
       0.18486385 0.19611073 -0.19653068 -0.095498465
000100 dd aa b2 3d ba f4 09 3e 67 ff 3f 3c 3f 4b 5c bd
       0.08723996 0.13472262 0.0117186075 -0.053782698
000110 c9 b3 a1 bd 57 ac aa 3e b2 87 4d be 32 4d 8a 3c
       -0.078956194 0.3333461 -0.20071295 0.016882513
000120 ef 03 46 3e 13 f9 a9 3d e8 54 41 be 04 c4 0c 3d
       0.19337438 0.0829946 -0.18880045 0.034366623
000130 e1 c3 8a bd 45 d6 0c be 08 26 0e 3e 0b 12 01 be
       -0.06775642 -0.13753612 0.13881695 -0.12604539
000140 61 0e 30 bd 89 01 b5 3d b8 5f 85 bd 64 7a 22 be
       -0.042982463 0.088381834 -0.065123975 -0.15867001
000150 e4 05 70 3e d0 7f 88 be 91 9d 25 3d de 1c 6e 3e
       0.23439747 -0.26660013 0.04043347 0.232532
000160 3e 04 3a bd e0 c2 b8 bb 95 32 45 bd 63 6b 31 be
       -0.045414202 -0.0056384653 -0.048143942 -0.17326121
000170 a7 22 51 be 6c fa 1b be cd 5e 30 3e fd fd 67 3e
       -0.20423375 -0.15232247 0.17223664 0.22655483
000180 c2 91 70 3c 8a 6c 94 be 51 91 1c be f6 c9 4a 3d
       0.014683189 -0.2898906 -0.15289809 0.04950901
000190 da af 7c bd a6 89 2a 3e 16 d4 30 3d 4b 8a 83 bd
       -0.061691143 0.16654071 0.04317101 -0.06422862
0001a0 4b d6 e9 bd fa ff cd bd f7 2f 3f 3d cd 4a 1e 3d
       -0.11417826 -0.10058589 0.046676602 0.038645554
0001b0 91 15 30 3d a7 d3 9c bd fa c2 85 3e 39 a4 49 be
       0.042989317 -0.07657557 0.26125318 -0.19691552
0001c0 d5 22 6f be 01 95 80 be 60 6f 39 be 5a 41 1a 3c
       -0.23353131 -0.2511368 -0.18108892 0.009414995
0001d0 7b 57 69 3e 4d 5f 2b bc 9b b8 bb bc 06 fb a6 3d
       0.22787277 -0.010459733 -0.022915175 0.08153348
0001e0 ee 31 19 3d e8 0c 00 3d bc f0 12 be bd 26 bc 3e
       0.037401132 0.03126231 -0.14349645 0.36748305
0001f0 da 6b c2 3d fa 55 a0 be da 61 83 3e ae 5e 2d be
       0.09493227 -0.31315595 0.25660592 -0.16930649

weight f4 [26, 128]
000000 43 8e d0 3c cd c9 a1 be 18 45 6b 3d b0 3e d4 3d
       0.02545846 -0.31599274 0.05743894 0.10363519
000010 8e 87 91 3d 1f 4a 13 3e 80 72 8a bd 93 1e af bc
       0.07105933 0.14383744 -0.067601204 -0.021376884
000020 9d 39 3b be fb 54 f4 bd e6 78 fe 3d bd 62 94 be
       -0.18283696 -0.11930271 0.12425403 -0.2898158
000030 bf 30 c4 3d b5 6e cc be 15 35 1d be 13 d8 94 be
       0.0957961 -0.39928213 -0.1535228 -0.29071102
000040 7c 58 9a be 87 de 96 be 1a 9f 05 3d 91 d5 42 bc
       -0.30145633 -0.2946665 0.032622434 -0.0118917385
000050 94 eb 9b 3d 1a 67 62 3d d5 b9 a3 3d dd ae f7 3d
       0.07613292 0.055274107 0.07994429 0.120938994
000060 4b 0b 7f 3d d0 fb 0e bd 87 d3 d4 3c 84 e8 2e 3d
       0.06226663 -0.034908116 0.02597977 0.042702213
000070 9e a5 13 bd df be 0f bd 9b 1d ab 3d 94 4f 9f bd
       -0.036046617 -0.03509414 0.08355256 -0.0777885
000080 6d 88 b0 3d 9e fe a1 bd 92 dc 25 3d f8 0f 0a bd
       0.08619771 -0.079098925 0.040493555 -0.033706635
000090 c1 32 4e 3d 1b a2 29 3d 73 08 02 3e 8c 04 94 3d
       0.05034137 0.04141436 0.12698536 0.0722743
0000a0 19 84 2b 3d 79 39 2a 3e c7 cf 98 3d 1c 4a 32 be
       0.041874025 0.16623487 0.074615054 -0.17411083
0000b0 87 2e 0c be 39 1b a6 bc 9b 03 92 3d 99 4b 85 be
       -0.13689624 -0.020276653 0.07129594 -0.2603424
0000c0 ae 9c 23 3e 0e 55 80 bd b2 c7 1f bc 81 f7 c5 bd
       0.15977737 -0.06266223 -0.009752201 -0.09666348
0000d0 2e be ec 3d 23 73 e9 3c 9b ee 9f bd 82 51 c9 bd
       0.115597114 0.028497284 -0.07809182 -0.098299995
0000e0 93 3f 7a 3d e0 96 1e 3e 07 59 ca 3b b6 c3 92 bd
       0.061095785 0.15487242 0.0061751637 -0.07166235
0000f0 eb ca b2 bd 7e ce c7 bd 1a 5a c0 bd b2 70 85 be
       -0.0873011 -0.09756182 -0.093921855 -0.26062542
000100 fc ba 21 be 1a 57 48 3c f7 dd a8 3d 33 62 85 be
       -0.15793985 0.012227798 0.082454614 -0.26051483
000110 aa e6 76 bd 6e 13 74 3d da 3a 8a 3d a3 dd 95 3b
       -0.060278572 0.059588842 0.06749506 0.0045735403
000120 6d 9d a2 bd a7 60 71 bc 0d 74 1a 3d 9c 53 92 bd
       -0.07940183 -0.014732516 0.03770833 -0.071448535
000130 b9 f3 e3 bd 4e 60 4d be 73 42 2e be 9a bd ad bd
       -0.11130471 -0.20056269 -0.17017536 -0.08483429
000140 50 1d 74 bd b9 68 fe bc 7d 05 5d 3d 8f 17 ef 3d
       -0.059598267 -0.031055795 0.053960312 0.11674415
000150 89 a9 a0 be e4 2e c9 bd 1f bb c8 3c 71 b1 82 3b
       -0.31379345 -0.09823397 0.024503289 0.003988438
000160 01 51 57 bd a1 d3 24 3e 92 58 b2 3d 06 61 c8 bc
       -0.052567486 0.16096355 0.087083 -0.024460327
000170 10 28 b5 bd 25 16 ed bd c2 47 3c bc 77 21 7e be
       -0.08845532 -0.11576489 -0.011491718 -0.24817453
000180 3d 91 09 3d 9f bf 31 bb 8c df 3a 3e a3 53 92 bd
       0.033585776 -0.0027122272 0.18249339 -0.07144859
000190 a3 ee 35 be 8a 4f 35 3d a8 e5 bb 3d 88 27 a2 be
       -0.17766814 0.044265307 0.09174663 -0.31670785
0001a0 93 77 54 3d 33 a7 73 be 71 d2 0e bc 48 4a 01 be
       0.051871847 -0.2379425 -0.008717165 -0.12625992
0001b0 e5 44 74 3d 33 4c 84 3d f8 93 8e 3d a7 ec 50 be
       0.059636015 0.06459846 0.069618165 -0.20402776
0001c0 d6 75 a5 be 24 a9 61 3c e1 c1 06 be 28 ad 0b 3d
       -0.32316464 0.013773236 -0.13159896 0.03410068
0001d0 59 b5 f8 3d e6 5e 74 be c0 c9 a2 be a5 8c 13 be
       0.12143964 -0.23864326 -0.31794548 -0.1440912
0001e0 0c a5 7c bd e7 c7 dc 3c 57 16 43 3e 7a 03 0b 3d
       -0.06168084 0.02695079 0.1905149 0.033938862
0001f0 87 d5 8a 3e 39 37 68 be 4d be 52 be b5 6e b1 3d
       0.27116033 -0.22677316 -0.20580406 0.08663694
000200 6d 2c 61 bd 18 c9 de bd ba 24 1a be c7 c1 57 be
       -0.05497401 -0.10878199 -0.15053073 -0.21070014
000210 e8 3d 0d 3e fb bf 4f be 4a 8a a1 be 61 10 1d 3e
       0.13793147 -0.20288078 -0.3155082 0.1533828
000220 55 65 50 3e c1 f7 84 be c6 3a 13 3e 54 45 10 bd
       0.20351155 -0.2597027 0.14377889 -0.035222366
000230 10 29 bd 3c e4 ff db 3d 16 df f2 bd f0 4b 31 3d
       0.02309087 0.10742167 -0.118589565 0.04328531
000240 22 46 dd 3d b8 ba fc 3b f8 ee 4d be 1d 06 74 bd
       0.108043924 0.0077126883 -0.2011069 -0.059576143
000250 95 ba aa bd 0b 50 fb bc 2f 35 17 3e 3f 4a 5d 3d
       -0.08336369 -0.030677816 0.14766382 0.054025885
000260 37 0c 33 be 54 fb 58 be c5 29 0e 3e 7e 7e 85 be
       -0.17485128 -0.21189624 0.13883121 -0.26073068
000270 d4 d8 18 be 31 7f 0a be 6a 74 18 3e 17 cc 29 bd
       -0.14926463 -0.13525082 0.14888158 -0.0414544
000280 28 28 b3 ba 4a a6 19 3e cf 42 d1 3d e2 41 fa 3d
       -0.0013668584 0.1500484 0.10217821 0.122195974
000290 41 b1 21 bd 0e 07 9b bd dd a0 bf bd 9d 9e e4 be
       -0.039475683 -0.07569705 -0.09356854 -0.44652262
0002a0 80 0f 8c 3d 6c 8c 9b 3d a2 5e 02 be 7a 17 78 3c
       0.06838894 0.07595143 -0.12731412 0.015142316
0002b0 16 bf 8e bd 26 23 8c 3d 47 24 04 3d f3 61 f8 bd
       -0.069700405 0.068426415 0.03226116 -0.12128057
0002c0 bf 60 b7 be 30 95 c2 be 4d 8e 30 be 20 f9 39 bd
       -0.35816 -0.38004446 -0.17241783 -0.0454036
0002d0 1a e2 e4 3d d3 ba 8f bd 5e 1d dd bd 8d 8b 6c bc
       0.11175938 -0.07018056 -0.10796617 -0.014437568
0002e0 7d b4 36 3d e6 36 3b 3b 1c c3 51 3d fa 13 22 3e
       0.04460572 0.0028566658 0.05121146 0.15827933
0002f0 68 d3 03 be 75 7e d1 3c 20 70 0b be 3f 36 34 be
       -0.12873614 0.025572995 -0.13616991 -0.17598818
000300 80 2e c7 3c 9a 09 0e 3e 03 cb 9c bd 81 50 02 be
       0.024314165 0.1387085 -0.07655909 -0.12726022
000310 65 02 24 be e8 f3 f7 bd 2f 8c 1a bd fd 39 65 3d
       -0.16016538 -0.12107068 -0.037731346 0.055963505
000320 95 29 76 3d c2 0d 6b be d6 fc 08 be 72 c8 07 bd
       0.06009825 -0.22954467 -0.133777 -0.033150144
000330 cb cd ab bd 64 7e 22 bd eb f1 f6 3d e2 5e 9a be
       -0.08388861 -0.039671317 0.12057861 -0.30150515
000340 79 0b cf bc ee 3b 48 bd f9 81 77 be 31 b9 cc bd
       -0.025274025 -0.04888528 -0.24170674 -0.0999626
000350 15 e9 b0 bd 54 67 46 3e c8 bd 10 3b 29 24 82 3e
       -0.08638207 0.19375354 0.0022085775 0.25418213
000360 2e 7c e3 3d 69 b7 9e 3d 78 44 31 bd 61 14 83 bd
       0.1110767 0.077498265 -0.043278188 -0.06400371
000370 71 22 94 be b3 5e eb be 3d 1a ea 3d 5b 86 6c 3d
       -0.28932527 -0.45970687 0.11430786 0.05774532
000380 8e 2a ce bd 5c b3 13 3d 29 fc a6 be 54 8b a0 bc
       -0.100667104 0.036059722 -0.32614258 -0.019597687
000390 a8 ec e7 3d 24 17 b4 bb 9d 78 be be 27 d8 c0 be
       0.113244355 -0.0054959226 -0.37201396 -0.3766491
0003a0 6a 58 03 3d 01 43 f2 bd 74 27 de 3d aa 68 6d bd
       0.03206674 -0.11829186 0.10847369 -0.057961144
0003b0 b4 50 fb bc 4e d6 76 bd 7c b8 68 3d 97 44 40 3d
       -0.03067813 -0.06026297 0.056816563 0.046940412
0003c0 79 27 53 bc ed 89 a4 be 98 93 15 be 18 34 da bc
       -0.012887829 -0.3213648 -0.14607084 -0.026636168
0003d0 33 cd 3a be b4 61 54 be fa f2 36 bc c9 ec 23 3e
       -0.1824234 -0.20740396 -0.011166329 0.16008295
0003e0 11 84 ba be 44 64 dc 3d f6 38 4e be 53 58 ab 3d
       -0.36428884 0.10761312 -0.20138916 0.08366456
0003f0 79 b5 ee be ec 87 a1 3d f2 8d c2 bc 8f da 2f be
       -0.46622828 0.07887253 -0.023749325 -0.17173217

bias f4 [26]
000000 9f d1 9b bd c7 62 84 3e 90 10 48 be 4c f9 d8 bc
       -0.076083414 0.2585661 -0.19537568 -0.026486062
000010 e4 e7 00 3e fa aa 55 bd 08 1b ad 3c b1 a9 69 3d
       0.12588459 -0.05216501 0.021131054 0.057046596
000020 63 dc 10 bd ee c9 ea bd bc ea 03 3e 9f 02 f6 bd
       -0.035366427 -0.11464296 0.12882513 -0.12012219
000030 99 e0 65 3e f1 e5 22 be a6 a0 b2 3d 3a fa dd bb
       0.22448958 -0.15908028 0.087220475 -0.006774214
000040 d4 cc 63 3e 6d ec 61 be cf 03 32 bd ff 3e 25 be
       0.22246104 -0.22062846 -0.043460663 -0.16137312
000050 1d 16 e3 ba ae 1c a4 bb 32 47 8d 3e c8 75 23 3e
       -0.0017325316 -0.0050083017 0.2759338 0.15962899
000060 87 09 27 bc 0a 9d 2f bd
       -0.010195143 -0.042874373
